{"config": [{"config": {"mask_zero": false, "activity_regularizer": null, "embeddings_regularizer": null, "dtype": "int32", "name": "embedding_1", "embeddings_constraint": null, "input_dim": 70, "output_dim": 64, "batch_input_shape": [null, 256], "input_length": 256, "trainable": true, "embeddings_initializer": {"config": {"seed": null, "minval": -0.05, "maxval": 0.05}, "class_name": "RandomUniform"}}, "class_name": "Embedding"}, {"config": {"strides": [1], "kernel_initializer": {"config": {"mode": "fan_avg", "seed": null, "distribution": "uniform", "scale": 1.0}, "class_name": "VarianceScaling"}, "activity_regularizer": null, "use_bias": true, "filters": 128, "name": "conv1d_1", "activation": "linear", "kernel_size": [7], "bias_constraint": null, "padding": "causal", "bias_initializer": {"config": {}, "class_name": "Zeros"}, "kernel_regularizer": null, "dilation_rate": [1], "kernel_constraint": null, "bias_regularizer": null, "trainable": true}, "class_name": "Conv1D"}, {"config": {"name": "elu_1", "trainable": true, "alpha": 1.0}, "class_name": "ELU"}, {"config": {"axis": -1, "center": true, "beta_initializer": {"config": {}, "class_name": "Zeros"}, "scale": true, "name": "batch_normalization_1", "beta_regularizer": null, "gamma_constraint": null, "moving_variance_initializer": {"config": {}, "class_name": "Ones"}, "moving_mean_initializer": {"config": {}, "class_name": "Zeros"}, "beta_constraint": null, "momentum": 0.99, "gamma_initializer": {"config": {}, "class_name": "Ones"}, "trainable": true, "gamma_regularizer": null, "epsilon": 0.001}, "class_name": "BatchNormalization"}, {"config": {"strides": [1], "kernel_initializer": {"config": {"mode": "fan_avg", "seed": null, "distribution": "uniform", "scale": 1.0}, "class_name": "VarianceScaling"}, "activity_regularizer": null, "use_bias": true, "filters": 128, "name": "conv1d_2", "activation": "linear", "kernel_size": [7], "bias_constraint": null, "padding": "causal", "bias_initializer": {"config": {}, "class_name": "Zeros"}, "kernel_regularizer": null, "dilation_rate": [1], "kernel_constraint": null, "bias_regularizer": null, "trainable": true}, "class_name": "Conv1D"}, {"config": {"name": "elu_2", "trainable": true, "alpha": 1.0}, "class_name": "ELU"}, {"config": {"axis": -1, "center": true, "beta_initializer": {"config": {}, "class_name": "Zeros"}, "scale": true, "name": "batch_normalization_2", "beta_regularizer": null, "gamma_constraint": null, "moving_variance_initializer": {"config": {}, "class_name": "Ones"}, "moving_mean_initializer": {"config": {}, "class_name": "Zeros"}, "beta_constraint": null, "momentum": 0.99, "gamma_initializer": {"config": {}, "class_name": "Ones"}, "trainable": true, "gamma_regularizer": null, "epsilon": 0.001}, "class_name": "BatchNormalization"}, {"config": {"strides": [1], "kernel_initializer": {"config": {"mode": "fan_avg", "seed": null, "distribution": "uniform", "scale": 1.0}, "class_name": "VarianceScaling"}, "activity_regularizer": null, "use_bias": true, "filters": 64, "name": "conv1d_3", "activation": "linear", "kernel_size": [3], "bias_constraint": null, "padding": "causal", "bias_initializer": {"config": {}, "class_name": "Zeros"}, "kernel_regularizer": null, "dilation_rate": [1], "kernel_constraint": null, "bias_regularizer": null, "trainable": true}, "class_name": "Conv1D"}, {"config": {"name": "elu_3", "trainable": true, "alpha": 1.0}, "class_name": "ELU"}, {"config": {"axis": -1, "center": true, "beta_initializer": {"config": {}, "class_name": "Zeros"}, "scale": true, "name": "batch_normalization_3", "beta_regularizer": null, "gamma_constraint": null, "moving_variance_initializer": {"config": {}, "class_name": "Ones"}, "moving_mean_initializer": {"config": {}, "class_name": "Zeros"}, "beta_constraint": null, "momentum": 0.99, "gamma_initializer": {"config": {}, "class_name": "Ones"}, "trainable": true, "gamma_regularizer": null, "epsilon": 0.001}, "class_name": "BatchNormalization"}, {"config": {"strides": [1], "kernel_initializer": {"config": {"mode": "fan_avg", "seed": null, "distribution": "uniform", "scale": 1.0}, "class_name": "VarianceScaling"}, "activity_regularizer": null, "use_bias": true, "filters": 64, "name": "conv1d_4", "activation": "linear", "kernel_size": [3], "bias_constraint": null, "padding": "causal", "bias_initializer": {"config": {}, "class_name": "Zeros"}, "kernel_regularizer": null, "dilation_rate": [1], "kernel_constraint": null, "bias_regularizer": null, "trainable": true}, "class_name": "Conv1D"}, {"config": {"name": "elu_4", "trainable": true, "alpha": 1.0}, "class_name": "ELU"}, {"config": {"axis": -1, "center": true, "beta_initializer": {"config": {}, "class_name": "Zeros"}, "scale": true, "name": "batch_normalization_4", "beta_regularizer": null, "gamma_constraint": null, "moving_variance_initializer": {"config": {}, "class_name": "Ones"}, "moving_mean_initializer": {"config": {}, "class_name": "Zeros"}, "beta_constraint": null, "momentum": 0.99, "gamma_initializer": {"config": {}, "class_name": "Ones"}, "trainable": true, "gamma_regularizer": null, "epsilon": 0.001}, "class_name": "BatchNormalization"}, {"config": {"name": "max_pooling1d_1", "strides": [3], "trainable": true, "padding": "valid", "pool_size": [3]}, "class_name": "MaxPooling1D"}, {"config": {"strides": [1], "kernel_initializer": {"config": {"mode": "fan_avg", "seed": null, "distribution": "uniform", "scale": 1.0}, "class_name": "VarianceScaling"}, "activity_regularizer": null, "use_bias": true, "filters": 64, "name": "conv1d_5", "activation": "linear", "kernel_size": [3], "bias_constraint": null, "padding": "causal", "bias_initializer": {"config": {}, "class_name": "Zeros"}, "kernel_regularizer": null, "dilation_rate": [1], "kernel_constraint": null, "bias_regularizer": null, "trainable": true}, "class_name": "Conv1D"}, {"config": {"name": "elu_5", "trainable": true, "alpha": 1.0}, "class_name": "ELU"}, {"config": {"axis": -1, "center": true, "beta_initializer": {"config": {}, "class_name": "Zeros"}, "scale": true, "name": "batch_normalization_5", "beta_regularizer": null, "gamma_constraint": null, "moving_variance_initializer": {"config": {}, "class_name": "Ones"}, "moving_mean_initializer": {"config": {}, "class_name": "Zeros"}, "beta_constraint": null, "momentum": 0.99, "gamma_initializer": {"config": {}, "class_name": "Ones"}, "trainable": true, "gamma_regularizer": null, "epsilon": 0.001}, "class_name": "BatchNormalization"}, {"config": {"name": "max_pooling1d_2", "strides": [3], "trainable": true, "padding": "valid", "pool_size": [3]}, "class_name": "MaxPooling1D"}, {"config": {"strides": [1], "kernel_initializer": {"config": {"mode": "fan_avg", "seed": null, "distribution": "uniform", "scale": 1.0}, "class_name": "VarianceScaling"}, "activity_regularizer": null, "use_bias": true, "filters": 64, "name": "conv1d_6", "activation": "linear", "kernel_size": [3], "bias_constraint": null, "padding": "causal", "bias_initializer": {"config": {}, "class_name": "Zeros"}, "kernel_regularizer": null, "dilation_rate": [1], "kernel_constraint": null, "bias_regularizer": null, "trainable": true}, "class_name": "Conv1D"}, {"config": {"name": "elu_6", "trainable": true, "alpha": 1.0}, "class_name": "ELU"}, {"config": {"axis": -1, "center": true, "beta_initializer": {"config": {}, "class_name": "Zeros"}, "scale": true, "name": "batch_normalization_6", "beta_regularizer": null, "gamma_constraint": null, "moving_variance_initializer": {"config": {}, "class_name": "Ones"}, "moving_mean_initializer": {"config": {}, "class_name": "Zeros"}, "beta_constraint": null, "momentum": 0.99, "gamma_initializer": {"config": {}, "class_name": "Ones"}, "trainable": true, "gamma_regularizer": null, "epsilon": 0.001}, "class_name": "BatchNormalization"}, {"config": {"name": "max_pooling1d_3", "strides": [3], "trainable": true, "padding": "valid", "pool_size": [3]}, "class_name": "MaxPooling1D"}, {"config": {"axis": -1, "center": true, "beta_initializer": {"config": {}, "class_name": "Zeros"}, "scale": true, "name": "batch_normalization_7", "beta_regularizer": null, "gamma_constraint": null, "moving_variance_initializer": {"config": {}, "class_name": "Ones"}, "moving_mean_initializer": {"config": {}, "class_name": "Zeros"}, "beta_constraint": null, "momentum": 0.99, "gamma_initializer": {"config": {}, "class_name": "Ones"}, "trainable": true, "gamma_regularizer": null, "epsilon": 0.001}, "class_name": "BatchNormalization"}, {"config": {"kernel_initializer": {"config": {"mode": "fan_avg", "seed": null, "distribution": "uniform", "scale": 1.0}, "class_name": "VarianceScaling"}, "recurrent_regularizer": null, "activity_regularizer": null, "use_bias": true, "stateful": false, "units": 128, "recurrent_activation": "hard_sigmoid", "go_backwards": false, "recurrent_constraint": null, "bias_regularizer": null, "recurrent_dropout": 0.0, "trainable": true, "kernel_constraint": null, "name": "lstm_1", "activation": "tanh", "return_sequences": false, "bias_initializer": {"config": {}, "class_name": "Zeros"}, "kernel_regularizer": null, "recurrent_initializer": {"config": {"seed": null, "gain": 1.0}, "class_name": "Orthogonal"}, "bias_constraint": null, "unroll": false, "dropout": 0.0, "unit_forget_bias": true, "implementation": 0}, "class_name": "LSTM"}, {"config": {"kernel_initializer": {"config": {"mode": "fan_avg", "seed": null, "distribution": "uniform", "scale": 1.0}, "class_name": "VarianceScaling"}, "activity_regularizer": null, "use_bias": true, "kernel_constraint": null, "name": "dense_1", "activation": "relu", "bias_initializer": {"config": {}, "class_name": "Zeros"}, "kernel_regularizer": null, "bias_constraint": null, "units": 512, "bias_regularizer": null, "trainable": true}, "class_name": "Dense"}, {"config": {"name": "dropout_1", "trainable": true, "rate": 0.5}, "class_name": "Dropout"}, {"config": {"kernel_initializer": {"config": {"mode": "fan_avg", "seed": null, "distribution": "uniform", "scale": 1.0}, "class_name": "VarianceScaling"}, "activity_regularizer": null, "use_bias": true, "kernel_constraint": null, "name": "dense_2", "activation": "relu", "bias_initializer": {"config": {}, "class_name": "Zeros"}, "kernel_regularizer": null, "bias_constraint": null, "units": 512, "bias_regularizer": null, "trainable": true}, "class_name": "Dense"}, {"config": {"kernel_initializer": {"config": {"mode": "fan_avg", "seed": null, "distribution": "uniform", "scale": 1.0}, "class_name": "VarianceScaling"}, "activity_regularizer": null, "use_bias": true, "kernel_constraint": null, "name": "dense_3", "activation": "softmax", "bias_initializer": {"config": {}, "class_name": "Zeros"}, "kernel_regularizer": null, "bias_constraint": null, "units": 16, "bias_regularizer": null, "trainable": true}, "class_name": "Dense"}], "keras_version": "2.0.3", "class_name": "Sequential", "backend": "tensorflow"}