{"backend": "tensorflow", "config": [{"config": {"embeddings_initializer": {"config": {"minval": -0.05, "maxval": 0.05, "seed": null}, "class_name": "RandomUniform"}, "dtype": "int32", "input_dim": 70, "trainable": true, "batch_input_shape": [null, 256], "activity_regularizer": null, "output_dim": 64, "embeddings_constraint": null, "embeddings_regularizer": null, "mask_zero": false, "name": "embedding_1", "input_length": 256}, "class_name": "Embedding"}, {"config": {"strides": [1], "filters": 128, "kernel_regularizer": null, "trainable": true, "activation": "linear", "name": "conv1d_1", "activity_regularizer": null, "use_bias": true, "bias_regularizer": null, "padding": "valid", "kernel_initializer": {"config": {"distribution": "uniform", "mode": "fan_avg", "seed": null, "scale": 1.0}, "class_name": "VarianceScaling"}, "kernel_constraint": null, "bias_initializer": {"config": {}, "class_name": "Zeros"}, "bias_constraint": null, "kernel_size": [7], "dilation_rate": [1]}, "class_name": "Conv1D"}, {"config": {"name": "elu_1", "trainable": true, "alpha": 1.0}, "class_name": "ELU"}, {"config": {"gamma_initializer": {"config": {}, "class_name": "Ones"}, "moving_variance_initializer": {"config": {}, "class_name": "Ones"}, "beta_regularizer": null, "epsilon": 0.001, "trainable": true, "center": true, "moving_mean_initializer": {"config": {}, "class_name": "Zeros"}, "scale": true, "axis": -1, "beta_constraint": null, "gamma_regularizer": null, "name": "batch_normalization_1", "gamma_constraint": null, "beta_initializer": {"config": {}, "class_name": "Zeros"}, "momentum": 0.99}, "class_name": "BatchNormalization"}, {"config": {"strides": [1], "filters": 128, "kernel_regularizer": null, "trainable": true, "activation": "linear", "name": "conv1d_2", "activity_regularizer": null, "use_bias": true, "bias_regularizer": null, "padding": "valid", "kernel_initializer": {"config": {"distribution": "uniform", "mode": "fan_avg", "seed": null, "scale": 1.0}, "class_name": "VarianceScaling"}, "kernel_constraint": null, "bias_initializer": {"config": {}, "class_name": "Zeros"}, "bias_constraint": null, "kernel_size": [7], "dilation_rate": [1]}, "class_name": "Conv1D"}, {"config": {"name": "elu_2", "trainable": true, "alpha": 1.0}, "class_name": "ELU"}, {"config": {"gamma_initializer": {"config": {}, "class_name": "Ones"}, "moving_variance_initializer": {"config": {}, "class_name": "Ones"}, "beta_regularizer": null, "epsilon": 0.001, "trainable": true, "center": true, "moving_mean_initializer": {"config": {}, "class_name": "Zeros"}, "scale": true, "axis": -1, "beta_constraint": null, "gamma_regularizer": null, "name": "batch_normalization_2", "gamma_constraint": null, "beta_initializer": {"config": {}, "class_name": "Zeros"}, "momentum": 0.99}, "class_name": "BatchNormalization"}, {"config": {"strides": [1], "filters": 64, "kernel_regularizer": null, "trainable": true, "activation": "linear", "name": "conv1d_3", "activity_regularizer": null, "use_bias": true, "bias_regularizer": null, "padding": "valid", "kernel_initializer": {"config": {"distribution": "uniform", "mode": "fan_avg", "seed": null, "scale": 1.0}, "class_name": "VarianceScaling"}, "kernel_constraint": null, "bias_initializer": {"config": {}, "class_name": "Zeros"}, "bias_constraint": null, "kernel_size": [3], "dilation_rate": [1]}, "class_name": "Conv1D"}, {"config": {"name": "elu_3", "trainable": true, "alpha": 1.0}, "class_name": "ELU"}, {"config": {"gamma_initializer": {"config": {}, "class_name": "Ones"}, "moving_variance_initializer": {"config": {}, "class_name": "Ones"}, "beta_regularizer": null, "epsilon": 0.001, "trainable": true, "center": true, "moving_mean_initializer": {"config": {}, "class_name": "Zeros"}, "scale": true, "axis": -1, "beta_constraint": null, "gamma_regularizer": null, "name": "batch_normalization_3", "gamma_constraint": null, "beta_initializer": {"config": {}, "class_name": "Zeros"}, "momentum": 0.99}, "class_name": "BatchNormalization"}, {"config": {"strides": [1], "filters": 64, "kernel_regularizer": null, "trainable": true, "activation": "linear", "name": "conv1d_4", "activity_regularizer": null, "use_bias": true, "bias_regularizer": null, "padding": "valid", "kernel_initializer": {"config": {"distribution": "uniform", "mode": "fan_avg", "seed": null, "scale": 1.0}, "class_name": "VarianceScaling"}, "kernel_constraint": null, "bias_initializer": {"config": {}, "class_name": "Zeros"}, "bias_constraint": null, "kernel_size": [3], "dilation_rate": [1]}, "class_name": "Conv1D"}, {"config": {"name": "elu_4", "trainable": true, "alpha": 1.0}, "class_name": "ELU"}, {"config": {"gamma_initializer": {"config": {}, "class_name": "Ones"}, "moving_variance_initializer": {"config": {}, "class_name": "Ones"}, "beta_regularizer": null, "epsilon": 0.001, "trainable": true, "center": true, "moving_mean_initializer": {"config": {}, "class_name": "Zeros"}, "scale": true, "axis": -1, "beta_constraint": null, "gamma_regularizer": null, "name": "batch_normalization_4", "gamma_constraint": null, "beta_initializer": {"config": {}, "class_name": "Zeros"}, "momentum": 0.99}, "class_name": "BatchNormalization"}, {"config": {"pool_size": [3], "trainable": true, "name": "max_pooling1d_1", "padding": "valid", "strides": [3]}, "class_name": "MaxPooling1D"}, {"config": {"strides": [1], "filters": 64, "kernel_regularizer": null, "trainable": true, "activation": "linear", "name": "conv1d_5", "activity_regularizer": null, "use_bias": true, "bias_regularizer": null, "padding": "valid", "kernel_initializer": {"config": {"distribution": "uniform", "mode": "fan_avg", "seed": null, "scale": 1.0}, "class_name": "VarianceScaling"}, "kernel_constraint": null, "bias_initializer": {"config": {}, "class_name": "Zeros"}, "bias_constraint": null, "kernel_size": [3], "dilation_rate": [1]}, "class_name": "Conv1D"}, {"config": {"name": "elu_5", "trainable": true, "alpha": 1.0}, "class_name": "ELU"}, {"config": {"gamma_initializer": {"config": {}, "class_name": "Ones"}, "moving_variance_initializer": {"config": {}, "class_name": "Ones"}, "beta_regularizer": null, "epsilon": 0.001, "trainable": true, "center": true, "moving_mean_initializer": {"config": {}, "class_name": "Zeros"}, "scale": true, "axis": -1, "beta_constraint": null, "gamma_regularizer": null, "name": "batch_normalization_5", "gamma_constraint": null, "beta_initializer": {"config": {}, "class_name": "Zeros"}, "momentum": 0.99}, "class_name": "BatchNormalization"}, {"config": {"pool_size": [3], "trainable": true, "name": "max_pooling1d_2", "padding": "valid", "strides": [3]}, "class_name": "MaxPooling1D"}, {"config": {"strides": [1], "filters": 64, "kernel_regularizer": null, "trainable": true, "activation": "linear", "name": "conv1d_6", "activity_regularizer": null, "use_bias": true, "bias_regularizer": null, "padding": "valid", "kernel_initializer": {"config": {"distribution": "uniform", "mode": "fan_avg", "seed": null, "scale": 1.0}, "class_name": "VarianceScaling"}, "kernel_constraint": null, "bias_initializer": {"config": {}, "class_name": "Zeros"}, "bias_constraint": null, "kernel_size": [3], "dilation_rate": [1]}, "class_name": "Conv1D"}, {"config": {"name": "elu_6", "trainable": true, "alpha": 1.0}, "class_name": "ELU"}, {"config": {"gamma_initializer": {"config": {}, "class_name": "Ones"}, "moving_variance_initializer": {"config": {}, "class_name": "Ones"}, "beta_regularizer": null, "epsilon": 0.001, "trainable": true, "center": true, "moving_mean_initializer": {"config": {}, "class_name": "Zeros"}, "scale": true, "axis": -1, "beta_constraint": null, "gamma_regularizer": null, "name": "batch_normalization_6", "gamma_constraint": null, "beta_initializer": {"config": {}, "class_name": "Zeros"}, "momentum": 0.99}, "class_name": "BatchNormalization"}, {"config": {"pool_size": [3], "trainable": true, "name": "max_pooling1d_3", "padding": "valid", "strides": [3]}, "class_name": "MaxPooling1D"}, {"config": {"gamma_initializer": {"config": {}, "class_name": "Ones"}, "moving_variance_initializer": {"config": {}, "class_name": "Ones"}, "beta_regularizer": null, "epsilon": 0.001, "trainable": true, "center": true, "moving_mean_initializer": {"config": {}, "class_name": "Zeros"}, "scale": true, "axis": -1, "beta_constraint": null, "gamma_regularizer": null, "name": "batch_normalization_7", "gamma_constraint": null, "beta_initializer": {"config": {}, "class_name": "Zeros"}, "momentum": 0.99}, "class_name": "BatchNormalization"}, {"config": {"trainable": true, "name": "global_max_pooling1d_1"}, "class_name": "GlobalMaxPooling1D"}, {"config": {"units": 512, "kernel_regularizer": null, "trainable": true, "activation": "relu", "activity_regularizer": null, "use_bias": true, "bias_regularizer": null, "kernel_initializer": {"config": {"distribution": "uniform", "mode": "fan_avg", "seed": null, "scale": 1.0}, "class_name": "VarianceScaling"}, "kernel_constraint": null, "bias_initializer": {"config": {}, "class_name": "Zeros"}, "bias_constraint": null, "name": "dense_1"}, "class_name": "Dense"}, {"config": {"trainable": true, "name": "dropout_1", "rate": 0.5}, "class_name": "Dropout"}, {"config": {"units": 512, "kernel_regularizer": null, "trainable": true, "activation": "relu", "activity_regularizer": null, "use_bias": true, "bias_regularizer": null, "kernel_initializer": {"config": {"distribution": "uniform", "mode": "fan_avg", "seed": null, "scale": 1.0}, "class_name": "VarianceScaling"}, "kernel_constraint": null, "bias_initializer": {"config": {}, "class_name": "Zeros"}, "bias_constraint": null, "name": "dense_2"}, "class_name": "Dense"}, {"config": {"units": 16, "kernel_regularizer": null, "trainable": true, "activation": "softmax", "activity_regularizer": null, "use_bias": true, "bias_regularizer": null, "kernel_initializer": {"config": {"distribution": "uniform", "mode": "fan_avg", "seed": null, "scale": 1.0}, "class_name": "VarianceScaling"}, "kernel_constraint": null, "bias_initializer": {"config": {}, "class_name": "Zeros"}, "bias_constraint": null, "name": "dense_3"}, "class_name": "Dense"}], "class_name": "Sequential", "keras_version": "2.0.4"}