{"keras_version": "2.0.4", "backend": "tensorflow", "config": [{"config": {"batch_input_shape": [null, 256], "embeddings_initializer": {"config": {"minval": -0.05, "seed": null, "maxval": 0.05}, "class_name": "RandomUniform"}, "activity_regularizer": null, "dtype": "int32", "name": "embedding_1", "trainable": true, "input_length": 256, "input_dim": 70, "embeddings_regularizer": null, "output_dim": 64, "embeddings_constraint": null, "mask_zero": false}, "class_name": "Embedding"}, {"config": {"kernel_constraint": null, "activity_regularizer": null, "bias_regularizer": null, "kernel_initializer": {"config": {"distribution": "uniform", "seed": null, "scale": 1.0, "mode": "fan_avg"}, "class_name": "VarianceScaling"}, "filters": 128, "trainable": true, "dilation_rate": [1], "strides": [1], "bias_constraint": null, "bias_initializer": {"config": {}, "class_name": "Zeros"}, "activation": "linear", "name": "conv1d_1", "kernel_regularizer": null, "kernel_size": [7], "padding": "valid", "use_bias": true}, "class_name": "Conv1D"}, {"config": {"trainable": true, "name": "elu_1", "alpha": 1.0}, "class_name": "ELU"}, {"config": {"axis": -1, "epsilon": 0.001, "gamma_initializer": {"config": {}, "class_name": "Ones"}, "trainable": true, "beta_initializer": {"config": {}, "class_name": "Zeros"}, "momentum": 0.99, "beta_regularizer": null, "gamma_regularizer": null, "moving_variance_initializer": {"config": {}, "class_name": "Ones"}, "name": "batch_normalization_1", "moving_mean_initializer": {"config": {}, "class_name": "Zeros"}, "scale": true, "gamma_constraint": null, "beta_constraint": null, "center": true}, "class_name": "BatchNormalization"}, {"config": {"kernel_constraint": null, "activity_regularizer": null, "bias_regularizer": null, "kernel_initializer": {"config": {"distribution": "uniform", "seed": null, "scale": 1.0, "mode": "fan_avg"}, "class_name": "VarianceScaling"}, "filters": 128, "trainable": true, "dilation_rate": [1], "strides": [1], "bias_constraint": null, "bias_initializer": {"config": {}, "class_name": "Zeros"}, "activation": "linear", "name": "conv1d_2", "kernel_regularizer": null, "kernel_size": [7], "padding": "valid", "use_bias": true}, "class_name": "Conv1D"}, {"config": {"trainable": true, "name": "elu_2", "alpha": 1.0}, "class_name": "ELU"}, {"config": {"axis": -1, "epsilon": 0.001, "gamma_initializer": {"config": {}, "class_name": "Ones"}, "trainable": true, "beta_initializer": {"config": {}, "class_name": "Zeros"}, "momentum": 0.99, "beta_regularizer": null, "gamma_regularizer": null, "moving_variance_initializer": {"config": {}, "class_name": "Ones"}, "name": "batch_normalization_2", "moving_mean_initializer": {"config": {}, "class_name": "Zeros"}, "scale": true, "gamma_constraint": null, "beta_constraint": null, "center": true}, "class_name": "BatchNormalization"}, {"config": {"kernel_constraint": null, "activity_regularizer": null, "bias_regularizer": null, "kernel_initializer": {"config": {"distribution": "uniform", "seed": null, "scale": 1.0, "mode": "fan_avg"}, "class_name": "VarianceScaling"}, "filters": 64, "trainable": true, "dilation_rate": [1], "strides": [1], "bias_constraint": null, "bias_initializer": {"config": {}, "class_name": "Zeros"}, "activation": "linear", "name": "conv1d_3", "kernel_regularizer": null, "kernel_size": [3], "padding": "valid", "use_bias": true}, "class_name": "Conv1D"}, {"config": {"trainable": true, "name": "elu_3", "alpha": 1.0}, "class_name": "ELU"}, {"config": {"axis": -1, "epsilon": 0.001, "gamma_initializer": {"config": {}, "class_name": "Ones"}, "trainable": true, "beta_initializer": {"config": {}, "class_name": "Zeros"}, "momentum": 0.99, "beta_regularizer": null, "gamma_regularizer": null, "moving_variance_initializer": {"config": {}, "class_name": "Ones"}, "name": "batch_normalization_3", "moving_mean_initializer": {"config": {}, "class_name": "Zeros"}, "scale": true, "gamma_constraint": null, "beta_constraint": null, "center": true}, "class_name": "BatchNormalization"}, {"config": {"kernel_constraint": null, "activity_regularizer": null, "bias_regularizer": null, "kernel_initializer": {"config": {"distribution": "uniform", "seed": null, "scale": 1.0, "mode": "fan_avg"}, "class_name": "VarianceScaling"}, "filters": 64, "trainable": true, "dilation_rate": [1], "strides": [1], "bias_constraint": null, "bias_initializer": {"config": {}, "class_name": "Zeros"}, "activation": "linear", "name": "conv1d_4", "kernel_regularizer": null, "kernel_size": [3], "padding": "valid", "use_bias": true}, "class_name": "Conv1D"}, {"config": {"trainable": true, "name": "elu_4", "alpha": 1.0}, "class_name": "ELU"}, {"config": {"axis": -1, "epsilon": 0.001, "gamma_initializer": {"config": {}, "class_name": "Ones"}, "trainable": true, "beta_initializer": {"config": {}, "class_name": "Zeros"}, "momentum": 0.99, "beta_regularizer": null, "gamma_regularizer": null, "moving_variance_initializer": {"config": {}, "class_name": "Ones"}, "name": "batch_normalization_4", "moving_mean_initializer": {"config": {}, "class_name": "Zeros"}, "scale": true, "gamma_constraint": null, "beta_constraint": null, "center": true}, "class_name": "BatchNormalization"}, {"config": {"trainable": true, "name": "max_pooling1d_1", "padding": "valid", "strides": [3], "pool_size": [3]}, "class_name": "MaxPooling1D"}, {"config": {"kernel_constraint": null, "activity_regularizer": null, "bias_regularizer": null, "kernel_initializer": {"config": {"distribution": "uniform", "seed": null, "scale": 1.0, "mode": "fan_avg"}, "class_name": "VarianceScaling"}, "filters": 64, "trainable": true, "dilation_rate": [1], "strides": [1], "bias_constraint": null, "bias_initializer": {"config": {}, "class_name": "Zeros"}, "activation": "linear", "name": "conv1d_5", "kernel_regularizer": null, "kernel_size": [3], "padding": "valid", "use_bias": true}, "class_name": "Conv1D"}, {"config": {"trainable": true, "name": "elu_5", "alpha": 1.0}, "class_name": "ELU"}, {"config": {"axis": -1, "epsilon": 0.001, "gamma_initializer": {"config": {}, "class_name": "Ones"}, "trainable": true, "beta_initializer": {"config": {}, "class_name": "Zeros"}, "momentum": 0.99, "beta_regularizer": null, "gamma_regularizer": null, "moving_variance_initializer": {"config": {}, "class_name": "Ones"}, "name": "batch_normalization_5", "moving_mean_initializer": {"config": {}, "class_name": "Zeros"}, "scale": true, "gamma_constraint": null, "beta_constraint": null, "center": true}, "class_name": "BatchNormalization"}, {"config": {"trainable": true, "name": "max_pooling1d_2", "padding": "valid", "strides": [3], "pool_size": [3]}, "class_name": "MaxPooling1D"}, {"config": {"kernel_constraint": null, "activity_regularizer": null, "bias_regularizer": null, "kernel_initializer": {"config": {"distribution": "uniform", "seed": null, "scale": 1.0, "mode": "fan_avg"}, "class_name": "VarianceScaling"}, "filters": 64, "trainable": true, "dilation_rate": [1], "strides": [1], "bias_constraint": null, "bias_initializer": {"config": {}, "class_name": "Zeros"}, "activation": "linear", "name": "conv1d_6", "kernel_regularizer": null, "kernel_size": [3], "padding": "valid", "use_bias": true}, "class_name": "Conv1D"}, {"config": {"trainable": true, "name": "elu_6", "alpha": 1.0}, "class_name": "ELU"}, {"config": {"axis": -1, "epsilon": 0.001, "gamma_initializer": {"config": {}, "class_name": "Ones"}, "trainable": true, "beta_initializer": {"config": {}, "class_name": "Zeros"}, "momentum": 0.99, "beta_regularizer": null, "gamma_regularizer": null, "moving_variance_initializer": {"config": {}, "class_name": "Ones"}, "name": "batch_normalization_6", "moving_mean_initializer": {"config": {}, "class_name": "Zeros"}, "scale": true, "gamma_constraint": null, "beta_constraint": null, "center": true}, "class_name": "BatchNormalization"}, {"config": {"trainable": true, "name": "max_pooling1d_3", "padding": "valid", "strides": [3], "pool_size": [3]}, "class_name": "MaxPooling1D"}, {"config": {"axis": -1, "epsilon": 0.001, "gamma_initializer": {"config": {}, "class_name": "Ones"}, "trainable": true, "beta_initializer": {"config": {}, "class_name": "Zeros"}, "momentum": 0.99, "beta_regularizer": null, "gamma_regularizer": null, "moving_variance_initializer": {"config": {}, "class_name": "Ones"}, "name": "batch_normalization_7", "moving_mean_initializer": {"config": {}, "class_name": "Zeros"}, "scale": true, "gamma_constraint": null, "beta_constraint": null, "center": true}, "class_name": "BatchNormalization"}, {"config": {"kernel_constraint": null, "recurrent_constraint": null, "activation": "tanh", "bias_initializer": {"config": {}, "class_name": "Zeros"}, "kernel_initializer": {"config": {"distribution": "uniform", "seed": null, "scale": 1.0, "mode": "fan_avg"}, "class_name": "VarianceScaling"}, "unit_forget_bias": true, "implementation": 0, "bias_regularizer": null, "stateful": false, "kernel_regularizer": null, "return_sequences": true, "unroll": false, "go_backwards": false, "recurrent_initializer": {"config": {"gain": 1.0, "seed": null}, "class_name": "Orthogonal"}, "trainable": true, "recurrent_regularizer": null, "dropout": 0.0, "units": 128, "activity_regularizer": null, "name": "lstm_1", "recurrent_activation": "hard_sigmoid", "recurrent_dropout": 0.0, "bias_constraint": null, "use_bias": true}, "class_name": "LSTM"}, {"config": {"trainable": true, "name": "attention_with_context_1"}, "class_name": "AttentionWithContext"}, {"config": {"kernel_constraint": null, "activity_regularizer": null, "bias_regularizer": null, "trainable": true, "bias_constraint": null, "kernel_initializer": {"config": {"distribution": "uniform", "seed": null, "scale": 1.0, "mode": "fan_avg"}, "class_name": "VarianceScaling"}, "bias_initializer": {"config": {}, "class_name": "Zeros"}, "activation": "relu", "name": "dense_1", "units": 512, "kernel_regularizer": null, "use_bias": true}, "class_name": "Dense"}, {"config": {"trainable": true, "name": "dropout_1", "rate": 0.5}, "class_name": "Dropout"}, {"config": {"kernel_constraint": null, "activity_regularizer": null, "bias_regularizer": null, "trainable": true, "bias_constraint": null, "kernel_initializer": {"config": {"distribution": "uniform", "seed": null, "scale": 1.0, "mode": "fan_avg"}, "class_name": "VarianceScaling"}, "bias_initializer": {"config": {}, "class_name": "Zeros"}, "activation": "relu", "name": "dense_2", "units": 512, "kernel_regularizer": null, "use_bias": true}, "class_name": "Dense"}, {"config": {"kernel_constraint": null, "activity_regularizer": null, "bias_regularizer": null, "trainable": true, "bias_constraint": null, "kernel_initializer": {"config": {"distribution": "uniform", "seed": null, "scale": 1.0, "mode": "fan_avg"}, "class_name": "VarianceScaling"}, "bias_initializer": {"config": {}, "class_name": "Zeros"}, "activation": "softmax", "name": "dense_3", "units": 16, "kernel_regularizer": null, "use_bias": true}, "class_name": "Dense"}], "class_name": "Sequential"}